pretrained/ann_student.pt (torch, 14751 bytes, 4 tensors)

input1.weight f4 [100, 30]
000000 7a 32 13 be 06 02 4f bd a3 8c 51 be 79 0f 49 3d
       -0.14374724 -0.05053904 -0.20463805 0.04908702
000010 39 6e ad bd a0 ef 16 3e f4 fb fb 3d 40 00 81 bc
       -0.08468289 0.14739847 0.123039156 -0.01574719
000020 1f 72 88 bd 17 3e 0e 3e 50 1c 9b bd ae a3 8e 3d
       -0.06662392 0.13890873 -0.075737596 0.06964813
000030 8b 26 b5 3d c4 e8 de 3d 1c c8 d3 3d 79 01 2f 3e
       0.08845242 0.1088424 0.10340902 0.17090406
000040 9c 38 10 3d 84 a2 af 3d 38 8b ff 3d 25 37 7d bd
       0.035210237 0.08575919 0.12477726 -0.061820168
000050 f8 45 21 3e 92 16 0b be 44 39 07 be 10 e9 ac 3e
       0.15749347 -0.13582829 -0.13205439 0.33771563
000060 c0 c3 10 bd aa 4c 15 3d cc 3e cc 3d a1 c2 32 3e
       -0.03534293 0.036450066 0.09972915 0.17457058
000070 a7 97 5e bc 10 87 27 bd 8a e0 41 be 52 53 52 be
       -0.013585961 -0.04090029 -0.18933311 -0.20539597
000080 32 e9 1a bd 46 dd 67 bd bc e6 27 3e 21 5a 1c 3e
       -0.03782005 -0.056607507 0.16396612 0.15268756
000090 39 e5 a5 3c ab 03 2f 3e dd b2 3c bd 29 5b c6 3d
       0.020250903 0.17091243 -0.046069015 0.09685356
0000a0 df 4e 0d 3d 3c 63 40 3e 35 48 19 3e c7 2e 31 bd
       0.034499045 0.18787855 0.14968951 -0.0432575
0000b0 90 b8 52 bb 02 ac 02 3e 68 28 17 bd 1f a0 23 3e
       -0.0032153465 0.12760928 -0.03690377 0.1597905
0000c0 37 81 81 3c 0a 86 11 bc 99 5c 09 be 08 1e 89 bd
       0.015808685 -0.008882055 -0.1341423 -0.06695181
0000d0 d5 9d ae be a8 38 9f 3e ce d1 ac bd 3b 70 c8 3d
       -0.3410479 0.31097913 -0.084384546 0.09787031
0000e0 c3 a2 39 3e 4f ab 23 3e 32 db 06 3d 40 3a 27 3c
       0.18128495 0.15983318 0.032923885 0.010206759
0000f0 17 43 19 bd d9 d5 9c bc d7 85 1f 3d 7b 82 f3 bd
       -0.037417497 -0.01914494 0.038946 -0.118901215
000100 69 11 28 bd 7a cc 02 3e 6d 9d 2b 3e ea 7b 9e 3d
       -0.04103223 0.12773314 0.16759272 0.077384785
000110 89 aa 12 3e 00 68 62 bd ba 6c 09 be 80 5d 5c 3e
       0.14322866 -0.055274963 -0.13420382 0.21520042
000120 86 79 8a bd 5b aa e4 bb 45 41 05 be 2e cb 08 3e
       -0.0676146 -0.0069783158 -0.1301318 0.13358757
000130 52 46 73 be 21 4d 7c 3c ed 2e 3e 3d 42 84 1e 3d
       -0.23757294 0.015399248 0.04643147 0.03870035
000140 bc b8 0b 3e 32 a5 6a 3e ec a3 29 be 21 be ca 3e
       0.1364469 0.2291458 -0.16566437 0.39598182
000150 a1 ef 06 bc 0b be 71 3e 35 5a 1c 3e 99 f3 6f bd
       -0.008235843 0.23607652 0.15268786 -0.058581922
000160 ea 7d eb bc 58 7b af 3d 7d 77 8b 3e 3b 6e d2 3d
       -0.028746564 0.08568448 0.272396 0.10274931
000170 aa ed 74 3d c2 06 08 bd 40 37 16 3c b8 25 71 3e
       0.059796967 -0.03320957 0.009168446 0.23549545
000180 56 03 ab 3d 84 4f 84 3d d7 38 ec 3c 52 8b 68 3d
       0.08350246 0.06460479 0.028835697 0.05677349
000190 4c d4 e9 bd 35 1e 98 ba 90 a7 bb 3c fa b7 10 bb
       -0.114174455 -0.0011605682 0.022907048 -0.0022082315
0001a0 5c 8e 8e 3d bd 13 ec bc 96 0b e9 3d 1e 6b 05 be
       0.06960747 -0.028818006 0.11379163 -0.13029143
0001b0 61 18 0c be 3e 24 6a 3d ba e9 1c 3e 4e 8d 88 3d
       -0.13681175 0.05716347 0.15323535 0.06667577
0001c0 e7 39 c6 3e 72 c0 7b be 1f 97 9a bd d4 51 0b be
       0.3871605 -0.24585131 -0.07548355 -0.13605434
0001d0 1f 42 c4 3d e4 17 07 3e a8 e5 ba 3c f0 ea 74 3d
       0.09582924 0.13192707 0.022814587 0.059794366
0001e0 00 36 94 bd ce be 6c be 54 36 0e 3c ec 53 2d be
       -0.07236862 -0.23119661 0.008679945 -0.16926545
0001f0 ea 2c e3 3d 3f 4e 6f 3e 08 dd 22 3e 47 d5 9e bd
       0.11092551 0.23369692 0.15904629 -0.07755523
000200 70 cd 95 3c 49 be 99 bc 52 b9 84 3e 64 be f6 3d
       0.018286437 -0.018767493 0.25922638 0.12048033
000210 9e dc 37 be 2e 8b 24 3e ed 66 8b 3d bf bd 1a 3e
       -0.17955253 0.16068718 0.06806741 0.15111445
000220 78 c6 8b be e2 c0 91 3d ab 4e 0e 3d 91 02 93 bd
       -0.27299857 0.071168676 0.034742992 -0.07178224
000230 58 ff db 3d 9c 98 88 3d 09 cb 53 be cf 70 37 3e
       0.10742062 0.06669733 -0.2068292 0.17914127
000240 47 8c 39 be 9f dd 92 3d 67 a1 4e 3e ca aa 00 be
       -0.18119918 0.07171177 0.20178758 -0.12565151
000250 72 14 67 3e 5a 34 82 bd e3 e5 f4 bd 8f 0f 38 3d
       0.22566393 -0.063576415 -0.1195791 0.044936713
000260 46 6d 36 3d ca 00 01 3c 96 f7 23 be 44 1a 48 be
       0.044537805 0.007873723 -0.16012415 -0.1954127
000270 94 23 22 be 2b 8e 1b 3d ad e6 31 be df 4a c5 3d
       -0.15833884 0.03797738 -0.17373152 0.09633421
000280 bc 3e 5b 3d 61 8d 37 be c8 ca a8 3d 22 46 37 3e
       0.053526625 -0.17925026 0.082418025 0.17897847
000290 c0 59 d1 3d 71 86 ce bb ce 0f f5 3d 37 d0 ec 3d
       0.102221966 -0.0063026478 0.11965905 0.11563151
0002a0 b7 fe 86 3d 7f 6c db 3d 3c dc 27 3d 66 f4 91 3d
       0.06591552 0.10714053 0.040981516 0.071266934
0002b0 6d cf 18 bd 16 28 03 3e 84 83 65 bd b4 b6 22 3e
       -0.03730719 0.1280826 -0.056033626 0.15890008
0002c0 e8 fe 43 be 3a 7c 17 be 08 1a 07 3e 1c da 39 bd
       -0.19140208 -0.14793482 0.13193524 -0.04537402
0002d0 7f e4 8e bd ad 7c 6a 3e ca 1c dc bc 33 b6 e6 bc
       -0.06977176 0.22899123 -0.026869196 -0.028163051
0002e0 0a 2e 9d 3d 92 61 80 bd 52 e4 46 be 3c 85 c8 3d
       0.07674797 -0.0626861 -0.19423035 0.097910374
0002f0 44 bf 09 3e 78 38 87 3e c0 15 28 bc 60 d7 22 be
       0.13451868 0.2641027 -0.010259092 -0.15902472
000300 33 97 d0 bd b8 a6 41 3e 31 ed 76 3e 82 8c ad bc
       -0.10185089 0.18911254 0.24113919 -0.021185163
000310 b8 09 0a be 76 ef ab bd 48 ea 89 bc 20 bf 5c 3d
       -0.1348027 -0.08395283 -0.016835347 0.05389321
000320 58 b2 df bd 56 d4 22 3e 1c 88 1b 3d f0 6a 82 be
       -0.10922688 0.15901312 0.0379716 -0.25472212
000330 88 e2 83 3e c0 ea 22 bd 50 ba 95 3d 31 04 2e 3e
       0.25758767 -0.039774656 0.07310927 0.16993786
000340 0c cf a5 bd 78 1c 8b 3c 94 0e ba 3d d3 f4 f2 3d
       -0.08096132 0.016981348 0.09084812 0.11863103
000350 28 71 7b bd 31 b7 2e 3e 51 92 27 be 6d 75 0d be
       -0.06138721 0.1706207 -0.16364409 -0.13814326
000360 15 d7 98 3d a8 77 f8 bc de 73 0c 3e 3b 20 5c 3d
       0.07462899 -0.030330494 0.13716075 0.053741675
000370 f3 63 49 3e cd b1 a7 be 4b 74 3e bd c2 ee 8b be
       0.19667034 -0.3275284 -0.046497624 -0.27330595
000380 0f ec 15 3e bf b1 88 bd d5 6a 5f be 4a aa 81 3d
       0.1464083 -0.066745274 -0.21818097 0.06331308
000390 47 df 4b be 21 4f 9a 3e 80 31 d6 3d 05 ea 46 bd
       -0.19909392 0.30138496 0.1045866 -0.048563022
0003a0 fa 3b 03 3e 86 98 80 be 1b a9 6b 3e 84 94 e2 bd
       0.12815848 -0.25116366 0.23013727 -0.11063483
0003b0 aa b8 f8 bd ce 1b 8d bd 54 c6 04 3e 08 f2 ed 3d
       -0.12144597 -0.06890069 0.12966281 0.116184294
0003c0 ed d4 0b be fa 13 8c bd cc bc 58 3d 64 10 ee bd
       -0.13655443 -0.06839748 0.052914426 -0.1162422
0003d0 20 7e 55 bd fd f2 c0 bd 54 76 5f bd a0 a3 3f bd
       -0.052122235 -0.09421346 -0.054556206 -0.046786904
0003e0 c0 c8 27 be 9b 78 2e be 1c f5 2c be 9a 70 2a be
       -0.16385174 -0.17038195 -0.16890377 -0.16644517
0003f0 18 57 37 3e f8 0f d3 3d 34 11 1a 3e 00 2c e5 bd
       0.17904317 0.1030578 0.15045625 -0.11190033

input1.bias f4 [100]
000000 cb 7c 4c 3e 66 00 7f 3e 46 94 05 bd 08 2d c5 bd
       0.1996948 0.24902496 -0.032612108 -0.0962773
000010 26 15 2c 3d ae dc cf bd 34 26 3a 3d 81 2c de 3d
       0.042012356 -0.10149513 0.04544659 0.10848332
000020 44 5f ee 3d ab f0 69 3e ba 03 55 bd c6 72 fa bd
       0.11639264 0.22845714 -0.052005507 -0.122289225
000030 7b 56 00 3e fe 74 17 be 80 1a 0a be 8f b1 ec 3d
       0.1253299 -0.14790723 -0.13486671 0.11557304
000040 00 45 94 bd 34 d8 17 3d 30 05 b7 3d 86 da ea 3d
       -0.07239723 0.03707142 0.08936536 0.11467461
000050 d6 92 aa bc d5 ad a5 bd 74 9e 3d 3e bd 35 dd bd
       -0.02082197 -0.080897965 0.18517476 -0.108012654
000060 57 88 13 be d3 b3 4a 3d 3d 41 84 bd f6 29 06 be
       -0.14407478 0.0494879 -0.06457756 -0.13101944
000070 64 8c 12 3e f7 f0 15 3d f1 cb 0a 3d 79 71 9a bd
       0.14311367 0.036606755 0.0338859 -0.075411744
000080 e0 8c d9 3c 02 3d cd bd bd 68 70 3e ed 3a 1d be
       0.026556432 -0.10021402 0.23477454 -0.1535451
000090 21 89 d0 bd 38 c4 72 3d 69 15 32 3e 6f 43 0e be
       -0.10182405 0.05926916 0.1739098 -0.13892911
0000a0 77 2d 0d be 10 9d 38 bd d6 bf e8 3d b0 cf 59 3e
       -0.13786875 -0.04507166 0.11364715 0.21270633
0000b0 04 37 01 be 46 41 29 3e f5 a0 21 3d a1 1c c3 bd
       -0.12618643 0.16528806 0.03946014 -0.09526945
0000c0 7e 01 15 bd a0 45 b0 3d f3 18 c8 3d 6c b4 49 be
       -0.036378376 0.0860703 0.09770384 -0.19697732
0000d0 b0 e1 49 bd 76 d2 2c be e6 62 32 be c3 ec 0f 3e
       -0.049287498 -0.1687716 -0.1742054 0.14055161
0000e0 a9 1a a6 3d 76 d4 45 3e 89 9e cf 3d ae 01 71 3e
       0.08110554 0.19319329 0.1013766 0.23535797
0000f0 64 ba 4a 3d a9 8e 28 3e 07 3a b7 bd 1d 7f 1d 3e
       0.049494162 0.1646067 -0.08946615 0.15380521
000100 b5 06 39 3e c8 15 89 bd 44 bb d1 3d 60 f6 d9 3d
       0.18068965 -0.066936076 0.10240796 0.106426954
000110 60 90 a1 bd fc ae a4 3c 8b ef ce 3d 26 7d 48 3e
       -0.078888655 0.02010297 0.10104283 0.1957899
000120 dc de dd 3c d8 ed d8 bd e0 cf 5b bd 4a 5d 13 3e
       0.027083807 -0.1059224 -0.053665042 0.14391056
000130 29 b9 5f bd 99 cc fa bd f5 d1 a1 3c eb 52 e9 3d
       -0.05461994 -0.12246055 0.019753436 0.113927685
000140 26 b7 2f 3e 89 59 50 ba 13 56 c9 3b 86 0f 51 bd
       0.1715971 -0.0007947912 0.006144294 -0.051040195
000150 92 21 57 3e 67 c8 09 3d a6 f8 22 3d be 8e 2c bd
       0.210089 0.033638384 0.03978791 -0.042128317
000160 f8 88 ed 3c 05 ad 24 be 65 8f f8 3d 73 c7 46 3d
       0.028995976 -0.16081627 0.12136725 0.048530053
000170 00 f9 ad 3d 13 35 ad 3b 7b 98 b1 bd 23 8f 0e be
       0.084947586 0.005285868 -0.086716615 -0.1392179
000180 0c 20 43 bd 3b d8 c5 3d d3 f2 63 3d 8c 59 09 3d
       -0.047637984 0.09660383 0.055651497 0.033532664

input2.weight f4 [2, 100]
000000 16 0a 48 3e f4 46 5e 3e cf 53 77 3e ed 70 1b be
       0.19535097 0.21706754 0.24153064 -0.15179797
000010 6f 6e cb 3d fb ae b2 bc 76 92 11 be e9 91 52 be
       0.09933173 -0.021811953 -0.14216027 -0.20563473
000020 58 b4 10 3c 3a 98 88 3e 1c a1 57 be 4a 44 d5 3c
       0.00883206 0.2667864 -0.21057552 0.02603354
000030 06 f9 7a 3e cb 0e 10 3e e4 ef f8 bd f0 97 85 3d
       0.24509057 0.14068143 -0.121551305 0.065231204
000040 4a 24 4d 3e 96 35 ea bd c8 7d be 3c 35 e5 54 3e
       0.20033374 -0.11436002 0.023253337 0.2079056
000050 42 66 65 be c0 dc 0b 3d bf 47 95 3e 0f 26 61 3e
       -0.2240229 0.03414607 0.291563 0.21987174
000060 70 99 39 bd fe 43 6b 3e fd d7 01 3e 13 92 32 be
       -0.045312345 0.22975156 0.12680049 -0.17438535
000070 1b 0e 5e be 93 3b b9 3c 09 d0 a3 3e c2 95 b3 3e
       -0.21685068 0.022611415 0.31994656 0.35075194
000080 a4 34 7f 3e e0 db 3e be c3 88 8b 3e 0f f1 8b 3e
       0.24922425 -0.18638563 0.27252778 0.2733235
000090 5c 9d 35 be 8e 01 6a 3e e5 d4 6d be 98 6c 49 3e
       -0.17735809 0.22852156 -0.23225744 0.19670331
0000a0 b4 49 5c 3d 3a b6 52 3d 86 0c 3f be 24 46 60 3e
       0.053781226 0.051443316 -0.18657121 0.21901757
0000b0 1c f6 b3 bd c6 55 21 3e 7b c9 d9 3d 12 de 3a be
       -0.08787176 0.15755376 0.106341325 -0.18248776
0000c0 f9 6d 2f 3e 8a 00 72 3e 7e 97 19 be 49 40 6b bd
       0.17131795 0.23633018 -0.14999196 -0.057434354
0000d0 ea 33 0b bd 00 22 87 bb 15 e7 7c 3d 66 4b 2e be
       -0.033985056 -0.004123926 0.061743814 -0.1702095
0000e0 fa 36 82 be bc 16 8e 3e ac d9 0f 3c d4 88 81 3e
       -0.2543257 0.2775172 0.008779924 0.25299704
0000f0 0d dd 3f 3e 7e 82 db 3c 46 f3 90 3e 72 02 9c 3e
       0.18736668 0.026795622 0.28310603 0.30470616
000100 c0 e7 ae bd 55 53 40 be d0 06 e4 3a 94 56 2c 3e
       -0.085402966 -0.18781789 0.001739705 0.16829902
000110 0c 70 73 3e 8e 82 f1 bd 99 ad 78 be a2 6a 9d be
       0.23773211 -0.117924795 -0.24284972 -0.30745417
000120 c3 89 47 be 18 fb 43 3e 01 84 8b be 20 bc 8e bd
       -0.19486146 0.19138753 -0.27249148 -0.06969476
000130 69 f1 31 3e 2e 66 0c be db fd 9b 3c 97 22 8d be
       0.17377247 -0.13710853 0.019041946 -0.27565452
000140 23 2f 97 be e1 4e ae bd 83 75 7d 3e 68 30 08 be
       -0.2952815 -0.08511139 0.24751858 -0.13299716
000150 b4 1a 73 3e ab a4 7e 3e 7e 96 76 3e af dd 37 3e
       0.23740655 0.24867503 0.24080846 0.1795566
000160 47 28 6a 3e 5b 4c 8c bd 8e af 71 3e 3f d0 10 be
       0.22866927 -0.06850501 0.23602125 -0.1414194
000170 e7 6e 2d 3e 27 2b 59 be 90 11 af bd 4c b5 ef bd
       0.16936837 -0.21207868 -0.08548272 -0.117045015
000180 db a6 71 3e 0a bd 59 3e 34 ed 18 be 1e 24 73 3e
       0.23598807 0.21263519 -0.14934236 0.23744246
000190 f8 5c 8d bd 6f 8f 86 be 3b 92 79 be 4b 47 1b 3e
       -0.06902498 -0.26281306 -0.24372189 0.15163915
0001a0 1a 23 29 be 45 48 bc bd 33 7c 24 3e 25 dd 59 3e
       -0.16517296 -0.09193472 0.16063003 0.21275766
0001b0 d0 87 19 bd 9d 45 1c be 60 d5 80 3e 48 8c e4 3b
       -0.037483037 -0.1526093 0.25162792 0.0069747306
0001c0 b8 fd 87 be 03 34 86 bc c3 27 37 3e 7b 32 35 bd
       -0.2656076 -0.016382223 0.17886262 -0.044237595
0001d0 dd 11 81 be 44 9c 0e bd 6e a0 16 3d 0d d1 a6 bd
       -0.2520894 -0.034816995 0.03677409 -0.08145342
0001e0 73 69 82 3e f5 d2 8e bd 36 02 7a be 28 62 26 be
       0.25471076 -0.069738306 -0.24414906 -0.16248381
0001f0 d7 d8 b4 bc 00 f3 79 be cb b1 14 be 92 f6 4e 3e
       -0.022076054 -0.24409103 -0.14520948 0.20211247
000200 ed b3 30 3e 54 17 30 be c5 80 93 be 4a 75 d3 be
       0.17256136 -0.17196399 -0.2880918 -0.41300422
000210 c4 53 54 be 2c 56 60 3e 3f 9e 2b be f2 61 f5 bd
       -0.20735079 0.21907872 -0.16759585 -0.11981572
000220 9d f2 8b 3e 78 b2 19 be a8 b4 0c 3e e1 ea 5f be
       0.27333537 -0.15009487 0.1374079 -0.21866943
000230 dc 9a a0 3d 70 c1 09 3c 33 22 80 3e 34 fc 62 be
       0.07842037 0.0084079355 0.25026092 -0.2216652
000240 93 aa 5c 3e 2f 3e 70 be 24 2b b7 bd 09 54 53 3e
       0.21549444 -0.23461221 -0.08943775 0.20637526
000250 d9 54 1b be 20 60 75 be e9 2f 4b 3e 6c eb a9 3d
       -0.15169086 -0.2396245 0.19842495 0.08296856
000260 82 64 1d 3d c7 37 87 3d 10 c4 e4 bd b8 9a 4a 3e
       0.03842593 0.066024356 -0.111702085 0.19785583
000270 ec cb 7b 3e 4f 11 a5 be 06 02 ce 3c 71 3d a2 be
       0.24589509 -0.32239768 0.02514745 -0.316875
000280 ec a5 8c bd c7 7f 9a bd 49 00 ab be 8c 9e 70 be
       -0.068675846 -0.07543903 -0.33398655 -0.23497981
000290 e4 90 5c 3e 16 39 fe 3d 56 e8 3b 3c fe 52 41 be
       0.21539646 0.12413232 0.011468967 -0.18879315
0002a0 5a 02 88 be 88 bd 83 3d 6f 7c 8b 3e c9 09 67 3e
       -0.26564294 0.064326346 0.27243373 0.22562326
0002b0 d7 08 3f 3e d3 f7 90 be 1a fd 27 3e e1 80 b5 3d
       0.18655716 -0.28314075 0.16405144 0.08862472
0002c0 63 ed ac bd f5 04 8e 3d 75 cf da 3d 52 63 77 3e
       -0.084437154 0.06934539 0.106841005 0.24158981
0002d0 88 97 18 3e 20 63 14 3e e7 08 88 be fd de 0b 3e
       0.14901555 0.14490938 -0.26569292 0.13659282
0002e0 cb cf 61 be 49 f1 8b be 67 aa ea bd 65 c2 36 bd
       -0.22051923 -0.27332523 -0.11458283 -0.044618983
0002f0 fd 15 41 be d7 91 af 3d f9 f6 6c be 12 e3 66 3e
       -0.18856044 0.085727386 -0.23141088 0.22547558
000300 51 25 8e be 59 ec 2f 3e 53 27 00 bd 6c 40 bb 3d
       -0.27762845 0.17180003 -0.031287502 0.09143147
000310 63 3a 4a be 22 66 1c be 40 0e 2b 3e 57 d0 11 be
       -0.19748835 -0.15273336 0.16704655 -0.14239632

input2.bias f4 [2]
000000 07 fb 12 bd 3d 3d 9b bd
       -0.03588393 -0.0758004
