pretrained/ann_rcdv.pt (torch, 9119 bytes, 4 tensors)

input1.weight f4 [100, 16]
000000 ca d0 c2 ba 39 20 47 3e ba 4f b1 3e 85 55 bc 3e
       -0.0014863249 0.19445886 0.3463114 0.36783996
000010 c5 e7 a6 be b8 67 2a bc dc 21 fd 3e 08 c1 01 bf
       -0.325987 -0.010400705 0.49439895 -0.5068517
000020 a6 1d 29 be 25 7c fd 3d 6b 24 89 bf c2 96 14 3f
       -0.16515216 0.12377194 -1.0714239 0.5804254
000030 91 f4 3e c0 4e 83 1d bf 4d 37 4a c0 ec 88 f6 3c
       -2.9836771 -0.6152848 -3.1596253 0.030094586
000040 69 57 f1 3e f5 a8 ab be a5 ef d3 be 40 bb 3f bd
       0.47137 -0.3352734 -0.41393772 -0.046809435
000050 6d 92 d1 3e 43 e3 78 3e ab 4c 90 bf 11 2e 2e bf
       0.40932027 0.24305443 -1.1273397 -0.6803904
000060 7d 0a ec be a5 e7 d9 3d 4b e0 ce 3e 21 b9 02 be
       -0.46101752 0.10639886 0.40405497 -0.12765934
000070 2a 0b c6 3f 41 ae 10 c0 7e c6 3b bf 20 b1 0b 3f
       1.5472157 -2.2606356 -0.7334975 0.54567146
000080 1d 0d c5 be 77 89 0a 3e 31 22 14 3f 05 5e 6f bd
       -0.38486567 0.13529001 0.5786467 -0.058439273
000090 7e 87 bc be 07 ca b5 3e 3d 54 02 bf 6d e7 b1 be
       -0.36822122 0.35505697 -0.5090979 -0.34746876
0000a0 87 7d 4c 3d e5 4f a4 3e 5a a9 d9 bf 47 52 fa 3e
       0.0499244 0.32092205 -1.7004807 0.48890898
0000b0 be a6 aa c0 34 36 f9 3e 39 37 1a c0 d8 d0 3a be
       -5.3328543 0.48674166 -2.4096205 -0.1824373
0000c0 06 8d 06 3e 17 07 55 3e cd c4 73 3e 11 ac 07 3e
       0.13139734 0.20803486 0.23805542 0.13249232
0000d0 38 2e 69 3d 3e 8c b4 bd f8 e1 99 bd 01 f3 c5 3e
       0.056928843 -0.088158116 -0.07513803 0.3866196
0000e0 61 c1 04 3c 27 dc 6a be c9 bb 94 be 43 7f 7f 3e
       0.008102746 -0.22935544 -0.2904952 0.2495089
0000f0 e3 4c 2a 40 40 ce 96 3d 43 58 30 c0 5e a4 dd 3e
       2.6609428 0.07363558 -2.755387 0.43289465
000100 ad bb 70 be 8f e5 b0 bd 5c 59 75 bf 06 52 c6 3e
       -0.23509093 -0.08637535 -0.95839477 0.38734454
000110 42 35 da 3e 4c 3a 8b 3e 1f 5c 6d bd cc 7f ad 3e
       0.42618757 0.27192914 -0.05794918 0.33886564
000120 c2 38 16 3e 95 59 00 bf 3e 88 0a c0 d1 4f db be
       0.14670089 -0.5013669 -2.1645656 -0.42834333
000130 fb 50 fb bf db 2e 0c 3f e0 e2 db bf 97 06 a3 3d
       -1.9634088 0.54758996 -1.7178612 0.07960241
000140 c2 d8 7e bc ef 1d 75 be 18 5d 4e bc 63 e0 97 be
       -0.015554609 -0.239372 -0.0125954375 -0.2966338
000150 59 d1 3f 3e 64 62 da be 40 f9 97 3b 6f cf 3a bd
       0.18732204 -0.4265319 0.004637867 -0.04560798
000160 0f e1 cc 3e 01 e2 27 3e ed 5a c6 3f a6 bb 33 bf
       0.40015456 0.16394807 1.5496498 -0.70208204
000170 9b 3e 90 be 5d df 73 bf 95 7f f3 3e a9 e0 d8 3e
       -0.28172764 -0.952627 0.47558275 0.42358902
000180 6d 9f d2 3e 1d d6 9d bf 4a 3d d5 3e 74 c7 bd bf
       0.41137257 -1.2330967 0.41648322 -1.4826493
000190 f0 39 89 bf d7 73 04 3d bf 24 b8 3d d4 35 02 be
       -1.0720806 0.032337036 0.08991384 -0.12715846
0001a0 51 32 18 3f 79 3f 07 3e 94 02 28 c0 84 d4 ab 3e
       0.59451777 0.13207807 -2.6251574 0.33560574
0001b0 a0 37 2d bf 62 c1 d3 3e 0c ba 9b bf 3b c8 5c be
       -0.67663 0.41358477 -1.2166152 -0.21560757
0001c0 72 8a 6e bc d5 d7 11 3e 8f 08 7c 3f b3 9d ab be
       -0.014559375 0.1424249 0.9845056 -0.33518752
0001d0 d5 84 65 3e 16 9b e1 3e be 0b a6 3e 9c 9c 6f bd
       0.22413953 0.44063634 0.32430834 -0.058498964
0001e0 6f 63 d3 3e bc 7a 96 be 47 1b 0c c0 99 29 9f be
       0.412868 -0.29390514 -2.1891649 -0.31086424
0001f0 78 50 03 3f fa 1b ee bf bf 52 08 40 23 f7 a3 3e
       0.5129466 -1.8602288 2.1300504 0.32024488
000200 da d0 96 3d 24 56 08 bf 39 db ed 3e 30 e5 53 be
       0.07364054 -0.5325644 0.46456316 -0.20692897
000210 2c 25 9b 3e 71 1f 22 3b 43 3d 91 be 59 21 b5 be
       0.30301797 0.0024737979 -0.2836705 -0.35377005
000220 0c f4 38 be c6 fd 68 3d 85 00 78 c0 da 74 df 3e
       -0.18061846 0.056882642 -3.8750317 0.43643838
000230 4c f6 f8 ba 82 a0 0a 3f c9 d6 36 bf 17 c6 d8 3e
       -0.0018994301 0.54151165 -0.71421486 0.4233863
000240 8d df ff 3e 18 99 b7 be 4d d3 99 3e 2e 8c 07 3d
       0.49975243 -0.3585899 0.30044022 0.03309267
000250 3d 6a e3 3e 26 6e 00 bf a0 bb 94 bf 62 ad 2d 3e
       0.4441699 -0.50168073 -1.1619759 0.16960672
000260 d3 92 ae 3e b2 17 37 bf a9 58 ec bf 65 e1 03 bf
       0.34096393 -0.7152053 -1.8464557 -0.515158
000270 91 f8 87 3f 30 21 9e 3f d2 d6 60 bf f1 65 ce 3e
       1.0622731 1.2353878 -0.8782779 0.4031215
000280 6e 54 0b bc bb 2d 66 be 2a b1 17 3f 00 b1 f6 bd
       -0.008504016 -0.22478382 0.59254706 -0.12045479
000290 b7 66 34 bf c0 6e 31 3f 8e 2f 1f bd 53 e2 b5 bf
       -0.7046923 0.69309616 -0.03886371 -1.4209694
0002a0 d6 15 32 3e 8d e3 4e be 46 58 88 3f 74 79 17 bf
       0.17391142 -0.20203991 1.0651939 -0.591697
0002b0 7b 85 c2 bf 43 67 37 3f 42 ee 64 bf 8c a8 d8 3e
       -1.5196985 0.7164194 -0.8942605 0.4231609
0002c0 f8 86 6a bf ee 42 e3 bd 04 ec 85 bf 04 19 06 bf
       -0.91612196 -0.1109675 -1.0462651 -0.5238192
0002d0 02 45 1e 3f 9a e7 22 bf e9 6d 49 3f b2 ac e6 3d
       0.6182405 -0.63634646 0.78683335 0.11263408
0002e0 65 26 a9 3e 17 42 60 3e e0 61 ef 3e 78 b7 fd ba
       0.33037105 0.21900211 0.4675436 -0.0019357046
0002f0 04 1f a6 bf 27 04 09 bf 9e bb 79 c0 7b 4e a4 3e
       -1.2978215 -0.5352196 -3.9020762 0.32091126
000300 f8 46 3e bd 5b d7 74 3d f7 6b ab bb e6 29 22 3e
       -0.0464544 0.05977569 -0.0052313763 0.15836295
000310 80 80 ae 3b 11 95 05 bd 88 76 02 be 1e 5f 31 be
       0.005325377 -0.032612864 -0.12740529 -0.1732144
000320 0b 05 ac 3a 92 2e 0a be ad 8c bc 3d a0 f9 56 bd
       0.0013124062 -0.13494328 0.09206519 -0.052484155
000330 f2 38 86 be e3 d4 15 3d 53 f8 f8 bd 52 a3 80 3b
       -0.2621532 0.036579978 -0.12156739 0.0039257193
000340 66 72 3b 3e 44 6d 99 3e 98 a4 18 3e a7 df 18 3e
       0.18305358 0.29966176 0.14906538 0.14929067
000350 14 11 59 3e 75 6f f2 3c 42 4f 55 3d 49 4a 31 be
       0.21197921 0.029594162 0.05207754 -0.17313494
000360 d1 fd 28 bf 4b ff 8d be fd b2 88 c0 c0 0a 8c 3f
       -0.66012293 -0.27733836 -4.271849 1.0940781
000370 f3 07 ae 3f ba 1b be bc 43 13 6e bf 8c 1d 17 bf
       1.3596176 -0.02320658 -0.9299814 -0.5902946
000380 c6 e8 9a be b3 94 68 3e 9c d8 1f bf 8c 83 5e 3e
       -0.30255717 0.22712974 -0.62439895 0.21729869
000390 9d d2 c3 be 16 4a fe 3e 0d d9 c4 bf 4c 44 58 3e
       -0.38246623 0.49665898 -1.5378739 0.21119803
0003a0 56 f2 20 3e 7f c6 f4 bd 5c 4d 52 c0 09 6e 0f 3f
       0.15717444 -0.119519226 -3.2859716 0.56027275
0003b0 88 6c 92 3f db c7 5c 3f 7e 48 4e 3f 55 12 81 3e
       1.1439371 0.86242455 0.80579364 0.252093
0003c0 f0 3b 19 bf 45 31 e1 3d 04 64 b8 3d 2b 7b 1d be
       -0.5985708 0.109957255 0.090034515 -0.15379016
0003d0 0b 35 53 be ec e7 bf be 70 d8 a7 be b1 0e ac be
       -0.20625703 -0.3748163 -0.32782316 -0.3360496
0003e0 71 ca 58 be 8b db 86 3c 63 3d 4b c0 30 45 41 3f
       -0.21170975 0.016462108 -3.1756217 0.75496197
0003f0 19 50 b9 3f 02 54 39 3f 52 b3 f8 be 42 30 41 bf
       1.4477569 0.7239381 -0.4857431 -0.7546426

input1.bias f4 [100]
000000 62 13 94 be cb e1 2d 3e 25 31 3b be ff c7 11 bf
       -0.28921038 0.16980664 -0.18280466 -0.56945795
000010 39 15 cd be 22 f4 fc 3d b5 e5 5c be 8d 89 19 3e
       -0.40055254 0.12351252 -0.21572001 0.14993878
000020 c2 d4 aa bd 55 16 ed 3d fb 3f e9 be 62 e6 85 3e
       -0.083413616 0.11576525 -0.45556626 0.2615233
000030 4e ce 56 be ab 21 4a be 00 a4 d1 be 5c 84 6b be
       -0.20977136 -0.19739406 -0.40945435 -0.2299971
000040 a9 09 8c 3e a1 2c ba be 1c 07 ec be da 6b 8a be
       0.2735112 -0.36362174 -0.46099174 -0.2703541
000050 2a ac 81 be 1c 0c 46 be 08 c3 6b be 96 ee 4b be
       -0.25326663 -0.19340557 -0.23023617 -0.19915232
000060 79 90 fb be ac 67 43 bd 14 c1 84 3e 8b a4 c0 bd
       -0.4913366 -0.04770629 0.25928557 -0.09406384
000070 32 44 86 3e cd d5 26 3e d3 20 49 be c2 8f 5a 3e
       0.26223904 0.16292496 -0.19641428 0.21343902
000080 9f 50 ff bd 1e f3 6b bd fc 35 c9 be 8c 35 a8 3e
       -0.12466549 -0.0576049 -0.39299 0.32853353
000090 5f 96 0f be 08 99 82 be 39 f1 6a be 16 62 c1 3d
       -0.14022206 -0.2550738 -0.22943582 0.094425365
0000a0 a2 ad 08 3e f8 9c 54 be 99 55 b1 3d 19 d6 88 3d
       0.13347486 -0.20763004 0.086589046 0.06681461
0000b0 57 a2 af 3d 39 83 1e bf b3 72 97 3e 75 76 4a 3c
       0.08575886 -0.6191898 0.29579696 0.012357344
0000c0 94 d5 de 3d e7 19 bb be 2e b6 54 bd 95 ca 24 3d
       0.108805805 -0.365432 -0.051931553 0.04023226
0000d0 9f 24 f8 3e fb d6 9d 3e 0c 8d 18 be 03 a2 b8 be
       0.4846544 0.3082808 -0.14897555 -0.36061105
0000e0 44 9c 33 be af 3f 22 3f 60 42 f8 be c1 38 e4 bd
       -0.1754008 0.63378423 -0.4848814 -0.111436374
0000f0 7d 8b d7 be c6 14 0b bf 58 cb 85 bd dc 22 b4 be
       -0.4209861 -0.5432857 -0.06532925 -0.35182846
000100 b0 14 cb 3c 74 46 55 bd aa 34 44 be 71 cb 4d bf
       0.024790138 -0.052069142 -0.19160715 -0.8038855
000110 2c dd 63 be ac 3e f4 bd 04 d1 4e 3e 86 de 0d 3b
       -0.22252339 -0.11926016 0.2019692 0.0021647527
000120 bc 22 bf be e1 5a c4 3c 18 2b 8a 3d ba 8f c4 3e
       -0.37331188 0.023969116 0.06746501 0.38390905
000130 1a 2c 94 3e 3a 4b 59 3d 37 94 0e be c4 54 5e bd
       0.28939897 0.053050257 -0.13923727 -0.054280058
000140 44 cb 89 be 29 a3 de bd 9c 97 31 bf a2 fc 88 be
       -0.26912892 -0.10870964 -0.6937196 -0.26755244
000150 ed 69 40 3e 24 ad cc bd f1 cd 79 3d 15 84 41 3e
       0.18790407 -0.099939615 0.060987417 0.18898042
000160 18 dc 64 be c4 cc 0b be 44 b4 c4 be 68 07 85 3e
       -0.22349584 -0.1365233 -0.38418782 0.25982213
000170 d9 a5 b0 bd 91 d9 da bd 1b a1 66 be d2 a4 3e bd
       -0.08625383 -0.10686029 -0.22522394 -0.046543904
000180 28 db ea be df 5a 88 3e de 3f 69 3d 38 fc d5 be
       -0.45870328 0.2663183 0.056945674 -0.4179399

input2.weight f4 [2, 100]
000000 99 07 dc 3e 48 4b a6 bf 4e 79 a3 3f 53 b4 70 3e
       0.42974547 -1.2991724 1.2771394 0.23506288
000010 2e 27 61 3f 17 b6 14 bf 90 ca 46 bf 96 fa 8e bf
       0.8795041 -0.5809035 -0.77652836 -1.1170223
000020 c3 75 40 3e 6c 68 e9 3f 85 ed 09 40 37 76 d6 bf
       0.18794923 1.8234992 2.155122 -1.6754826
000030 0d 39 9f bc e9 8b c7 3f ac 87 72 3f 8a 4f 6e bf
       -0.019436384 1.5589572 0.9473827 -0.93090117
000040 61 76 6b 3f 0c 1b 46 3f c4 f1 48 3f 22 4e b1 3b
       0.91977507 0.7738502 0.78493905 0.0054109255
000050 9c 59 ee 3b 1d 06 04 3f 6e 21 30 3f 65 39 b8 3f
       0.007273866 0.5157183 0.6880101 1.4392515
000060 2b f2 10 3e 45 76 be bf 4a c9 7d bf a9 f3 9e 3f
       0.1415488 -1.4879843 -0.9913527 1.2418109
000070 6a 9a f9 3f b8 df 03 40 5a 15 76 3f 61 37 82 be
       1.9500248 2.0605297 0.9612633 -0.25432876
000080 9d 56 8a bf 67 f1 5b bf c9 d2 4b 3f 69 b1 9b bf
       -1.0807682 -0.85915226 0.7961851 -1.2163516
000090 3f 92 06 c0 28 9e b2 3e 41 40 01 40 33 44 ce 3f
       -2.1026762 0.3488629 2.0195467 1.6114563
0000a0 92 a6 6d bf 8f f4 20 3f 93 16 f6 bf 0c 6e 25 c0
       -0.9283229 0.62873167 -1.9225639 -2.5848417
0000b0 19 5a b3 3f 84 7d f8 3f 9f c4 7e bf 27 74 42 40
       1.4011871 1.9413304 -0.9951877 3.0383394
0000c0 2d 97 c6 3f a9 0a 58 be cd 3d b8 3e 0f 74 a5 3f
       1.5514885 -0.21097817 0.3598465 1.2926043
0000d0 19 12 b7 bf 24 bb 63 3f 2b 85 f9 3d 55 17 04 40
       -1.4302398 0.8895743 0.12183603 2.063924
0000e0 66 55 09 3f b0 6a 0d be 81 99 bd 3f 08 64 76 3c
       0.5364593 -0.1381023 1.4812471 0.015038498
0000f0 b4 54 fe 3e cd 28 ae 3f 0f 4c f0 3f 40 2d b9 3f
       0.49673998 1.3606201 1.8773211 1.4466934
000100 6d 22 81 bd 43 59 05 40 d5 d8 47 40 f5 63 10 40
       -0.06305394 2.083573 3.1226094 2.256101
000110 34 93 01 c0 38 4f 01 3f d7 1d d6 bf 75 4b bc 3f
       -2.0246096 0.50511503 -1.6727856 1.4710528
000120 22 1a f7 bc 91 ed 6e 3f 7c d7 18 40 38 f4 07 3f
       -0.030163828 0.9333125 2.3881521 0.53107023
000130 54 35 82 3f ad 2f 3a 40 ee 14 b6 3f e9 76 2f 40
       1.0172524 2.90916 1.4225137 2.7416327
000140 00 5e 0c bd 1e 1d 4a bc b2 96 cf 3f 86 e6 26 40
       -0.034269333 -0.012336044 1.6217864 2.60782
000150 d7 95 ee 3f ed 91 ca 3e de 8a 0d 3f e6 f2 85 3f
       1.8639477 0.39564458 0.5529002 1.0464752
000160 ce 09 71 3d c8 fd 82 3c fc 99 28 3f 59 93 05 3f
       0.05884724 0.015990153 0.6585996 0.5217796
000170 05 37 1c c0 0e 63 82 3e ce 41 6e 3f 63 c0 83 3f
       -2.4408581 0.25466198 0.9306916 1.0293087
000180 91 ea 20 40 c1 13 c8 bf 44 ea af 3f 6e 15 19 3f
       2.5143168 -1.5631028 1.3743367 0.59798324
000190 7f 35 08 bf 49 d6 91 3f 98 be a3 bf 3b e1 61 be
       -0.5320663 1.139352 -1.279254 -0.22058575
0001a0 45 83 5e bf 3e e1 04 3f ae 3d 54 3f ad 10 8b 3f
       -0.8691905 0.5190619 0.82906616 1.0864464
0001b0 fd de 17 be 5e 3b d7 bf 29 4d 0a c0 c1 03 d3 3f
       -0.14831157 -1.6814992 -2.1609595 1.6485521
0001c0 97 bf f0 bb 8e bc b7 bf cc 28 68 bf c3 54 60 3f
       -0.007347058 -1.4354417 -0.9068725 0.87629336
0001d0 35 df 86 bf 50 5f 41 bf 4f 31 4f bf 72 4f 68 3c
       -1.0536867 -0.7553606 -0.80934614 0.0141790975
0001e0 b6 58 b2 3b de 3c 01 bf 48 bc 37 bf db 7b b0 bf
       0.005442704 -0.504835 -0.7177167 -1.3787798
0001f0 50 5f 18 be 81 91 bd 3f 6d 59 81 3f 8e 7c a3 bf
       -0.14880109 1.4810029 1.0105416 -1.2772386
000200 79 fc fe bf bf b2 02 c0 fc bc 73 bf af 01 61 3e
       -1.9920799 -2.0421598 -0.9521024 0.21973298
000210 fa db 85 3f ac 9b 81 3f bd b7 43 bf 89 51 8d 3f
       1.0457757 1.0125632 -0.7645224 1.1040508
000220 8d 2b 06 40 8c 36 7e be 81 0f f6 bf 3b 9f d6 bf
       2.0964081 -0.24825495 -1.9223481 -1.6767343
000230 3e 4a 4e 3f 4a f0 4a bf 81 69 fe 3f f5 61 1b 40
       0.80582035 -0.792729 1.9875947 2.4278538
000240 a9 be be bf 1c fe ec bf d7 f6 93 3f e3 81 3e c0
       -1.4901935 -1.8515048 1.1559705 -2.9766777
000250 63 cd b4 bf 6e 78 5b 3e 84 76 5d be 48 96 ac bf
       -1.4125179 0.21432659 -0.21627241 -1.3483362
000260 ea 58 bc 3f 47 b9 5a bf ef 8d 60 be a5 93 03 c0
       1.4714634 -0.8543896 -0.21929143 -2.0558865
000270 52 18 d5 be f2 c2 0e 3e c3 d4 cd bf 9e 7f 83 3c
       -0.41620117 0.13941553 -1.6080555 0.016052064
000280 6d ae 0a bf 15 e0 aa bf 62 8d e4 bf 81 8d be bf
       -0.541724 -1.3349634 -1.7855647 -1.4886934
000290 d3 13 9e 3d fd aa fe bf 3e 60 4e c0 34 2b 10 c0
       0.07718625 -1.9895931 -3.2246242 -2.252637
0002a0 98 07 0e 40 fe 52 11 bf be c5 da 3f 5a 14 b6 bf
       2.2192135 -0.5676726 1.7091596 -1.4224961
0002b0 99 e2 0b bd c2 d7 7c bf 54 a6 15 c0 a6 88 ff be
       -0.034151647 -0.9876672 -2.3382769 -0.49908942
0002c0 97 5b 84 bf 22 5f 36 c0 43 ee c5 bf b1 48 2f c0
       -1.0340451 -2.8495564 -1.5463337 -2.7388117
0002d0 60 d2 7a ba d5 60 6f bc 4d f7 db bf f7 89 24 c0
       -0.00095680915 -0.014610489 -1.7184845 -2.5709207
0002e0 32 1d ea bf 7c 0d df be 13 ed d6 be 8a b1 79 bf
       -1.829016 -0.43564975 -0.41977748 -0.9753653
0002f0 ae c2 a4 bd 77 0c bd 3c 7b cc 2d bf 4f 30 d4 be
       -0.08044945 0.023077233 -0.6789014 -0.41443107
000300 67 9e 1b 40 ae b1 9a be 64 c1 79 bf ee a6 79 bf
       2.431543 -0.30213684 -0.97560716 -0.9752034
000310 b9 fc 27 c0 e8 eb ce 3f b1 c6 a9 bf 67 b1 24 bf
       -2.6248 1.6165743 -1.3263761 -0.64333194

input2.bias f4 [2]
000000 65 0d 4d bf de 17 48 3f
       -0.80098563 0.7816142
